…
E   KeyError: 'context_window'</failure></testcase><testcase classname="tests.test_phase1.TestPhase1Integration" name="test_pipeline_error_handling" time="0.056"><failure message="Failed: DID NOT RAISE &lt;class 'Exception'&gt;">tests/test_phase1.py:550: in test_pipeline_error_handling
    with pytest.raises(Exception):
E   Failed: DID NOT RAISE &lt;class 'Exception'&gt;</failure></testcase><testcase classname="tests.test_phase2.TestHybridGNNModel" name="test_hybrid_gnn_init" time="0.085"><failure message="AssertionError: assert False&#10; +  where False = hasattr(HybridGNNModel(\n  (lit_encoder): LiteratureGraphEncoder(\n    (node_projection): Linear(in_features=768, out_features=256, bias=True)\n    (edge_projection): Linear(in_features=768, out_features=256, bias=True)\n    (conv_layers): ModuleList(\n      (0-2): 3 x GraphConvolutionLayer(256, 256)\n    )\n    (temporal_attention): MultiheadAttention(\n      (out_proj): NonDynamicallyQuantizableLinear(in_features=256, out_features=256, bias=True)\n    )\n    (output_projection): Sequential(\n      (0): Linear(in_features=256, out_features=256, bias=True)\n      (1): ReLU()\n      (2): Dropout(p=0.1, inplace=False)\n      (3): Linear(in_features=256, out_features=256, bias=True)\n    )\n  )\n  (literature_encoder): LiteratureGraphEncoder(\n    (node_projection): Linear(in_features=768, out_features=256, bias=True)\n    (edge_projection): Linear(in_features=768, out_features=256, bias=True)\n    (conv_layers): ModuleList(\n      (0-2): 3 x GraphConvolutionLayer(256, 256)\n    )\n    (temporal_attention): MultiheadAttention(\n      (out_proj): NonDynamicallyQuantizableLinear(in_features=256, out_features=256, bias=True)\n    )\n    (output_projection): Sequential(\n      (0): Linear(in_features=256, out_features=25...ise_affine=True)\n      )\n    )\n    (fusion_attention): MultiheadAttention(\n      (out_proj): NonDynamicallyQuantizableLinear(in_features=256, out_features=256, bias=True)\n    )\n    (output_norm): LayerNorm((256,), eps=1e-05, elementwise_affine=True)\n    (dropout): Dropout(p=0.1, inplace=False)\n  )\n  (relation_predictor): RelationPredictor(\n    (relation_classifier): Sequential(\n      (0): Linear(in_features=512, out_features=256, bias=True)\n      (1): ReLU()\n      (2): Dropout(p=0.1, inplace=False)\n      (3): Linear(in_features=256, out_features=128, bias=True)\n      (4): ReLU()\n      (5): Dropout(p=0.1, inplace=False)\n      (6): Linear(in_features=128, out_features=10, bias=True)\n    )\n    (confidence_estimator): Sequential(\n      (0): Linear(in_features=512, out_features=256, bias=True)\n      (1): ReLU()\n      (2): Dropout(p=0.1, inplace=False)\n      (3): Linear(in_features=256, out_features=1, bias=True)\n      (4): Sigmoid()\n    )\n    (link_predictor): Sequential(\n      (0): Linear(in_features=512, out_features=256, bias=True)\n      (1): ReLU()\n      (2): Dropout(p=0.1, inplace=False)\n      (3): Linear(in_features=256, out_features=1, bias=True)\n      (4): Sigmoid()\n    )\n  )\n), 'cross_modal_attention')">tests/test_phase2.py:36: in test_hybrid_gnn_init
    assert hasattr(model, 'cross_modal_attention')
E   AssertionError: assert False
E    +  where False = hasattr(HybridGNNModel(\n  (lit_encoder): LiteratureGraphEncoder(\n    (node_projection): Linear(in_features=768, out_features=256, bias=True)\n    (edge_projection): Linear(in_features=768, out_features=256, bias=True)\n    (conv_layers): ModuleList(\n      (0-2): 3 x GraphConvolutionLayer(256, 256)\n    )\n    (temporal_attention): MultiheadAttention(\n      (out_proj): NonDynamicallyQuantizableLinear(in_features=256, out_features=256, bias=True)\n    )\n    (output_projection): Sequential(\n      (0): Linear(in_features=256, out_features=256, bias=True)\n      (1): ReLU()\n      (2): Dropout(p=0.1, inplace=False)\n      (3): Linear(in_features=256, out_features=256, bias=True)\n    )\n  )\n  (literature_encoder): LiteratureGraphEncoder(\n    (node_projection): Linear(in_features=768, out_features=256, bias=True)\n    (edge_projection): Linear(in_features=768, out_features=256, bias=True)\n    (conv_layers): ModuleList(\n      (0-2): 3 x GraphConvolutionLayer(256, 256)\n    )\n    (temporal_attention): MultiheadAttention(\n      (out_proj): NonDynamicallyQuantizableLinear(in_features=256, out_features=256, bias=True)\n    )\n    (output_projection): Sequential(\n      (0): Linear(in_features=256, out_features=25...ise_affine=True)\n      )\n    )\n    (fusion_attention): MultiheadAttention(\n      (out_proj): NonDynamicallyQuantizableLinear(in_features=256, out_features=256, bias=True)\n    )\n    (output_norm): LayerNorm((256,), eps=1e-05, elementwise_affine=True)\n    (dropout): Dropout(p=0.1, inplace=False)\n  )\n  (relation_predictor): RelationPredictor(\n    (relation_classifier): Sequential(\n      (0): Linear(in_features=512, out_features=256, bias=True)\n      (1): ReLU()\n      (2): Dropout(p=0.1, inplace=False)\n      (3): Linear(in_features=256, out_features=128, bias=True)\n      (4): ReLU()\n      (5): Dropout(p=0.1, inplace=False)\n      (6): Linear(in_features=128, out_features=10, bias=True)\n    )\n    (confidence_estimator): Sequential(\n      (0): Linear(in_features=512, out_features=256, bias=True)\n      (1): ReLU()\n      (2): Dropout(p=0.1, inplace=False)\n      (3): Linear(in_features=256, out_features=1, bias=True)\n      (4): Sigmoid()\n    )\n    (link_predictor): Sequential(\n      (0): Linear(in_features=512, out_features=256, bias=True)\n      (1): ReLU()\n      (2): Dropout(p=0.1, inplace=False)\n      (3): Linear(in_features=256, out_features=1, bias=True)\n      (4): Sigmoid()\n    )\n  )\n), 'cross_modal_attention')</failure></testcase><testcase classname="tests.test_phase2.TestHybridGNNModel" name="test_hybrid_gnn_forward" time="0.014"><failure message="RuntimeError: mat1 and mat2 shapes cannot be multiplied (3x128 and 64x128)">tests/test_phase2.py:56: in test_hybrid_gnn_forward
    output = model(
.venv/lib/python3.11/site-packages/torch/nn/modules/module.py:1773: in _wrapped_call_impl
…
E   AttributeError: COMPUTATIONAL</failure></testcase><testcase classname="tests.test_phase3.TestConfidenceScoring" name="test_confidence_metrics_dataclass" time="0.000"><failure message="TypeError: ConfidenceMetrics.__init__() got an unexpected keyword argument 'consistency_score'">tests/test_phase3.py:43: in test_confidence_metrics_dataclass
    metrics = ConfidenceMetrics(
E   TypeError: ConfidenceMetrics.__init__() got an unexpected keyword argument 'consistency_score'</failure></testcase><testcase classname="tests.test_phase3.TestConfidenceScoring" name="test_confidence_scorer_init" time="0.006" /><testcase classname="tests.test_phase3.TestConfidenceScoring" name="test_assess_relationship_confidence" time="0.006"><failure message="AttributeError: LiteratureConfidenceAssessor(&#10;  (confidence_net): Sequential(&#10;    (0): Linear(in_features=778, out_features=256, bias=True)&#10;    (1): ReLU()&#10;    (2): Dropout(p=0.1, inplace=False)&#10;    (3): Linear(in_features=256, out_features=128, bias=True)&#10;    (4): ReLU()&#10;    (5): Dropout(p=0.1, inplace=False)&#10;    (6): Linear(in_features=128, out_features=1, bias=True)&#10;    (7): Sigmoid()&#10;  )&#10;) does not have the attribute 'assess_confidence'">tests/test_phase3.py:71: in test_assess_relationship_confidence
    with patch.object(scorer.literature_assessor, 'assess_confidence') as mock_lit:
../../.local/share/uv/python/cpython-3.11.13-macos-aarch64-none/lib/python3.11/unittest/mock.py:1446: in __enter__
    original, local = self.get_original()
                      ^^^^^^^^^^^^^^^^^^^
../../.local/share/uv/python/cpython-3.11.13-macos-aarch64-none/lib/python3.11/unittest/mock.py:1419: in get_original
    raise AttributeError(
E   AttributeError: LiteratureConfidenceAssessor(
E     (confidence_net): Sequential(
E       (0): Linear(in_features=778, out_features=256, bias=True)
E       (1): ReLU()
E       (2): Dropout(p=0.1, inplace=False)
E       (3): Linear(in_features=256, out_features=128, bias=True)
E       (4): ReLU()
E       (5): Dropout(p=0.1, inplace=False)
E       (6): Linear(in_features=128, out_features=1, bias=True)
E       (7): Sigmoid()
E     )
E   ) does not have the attribute 'assess_confidence'</failure></testcase><testcase classname="tests.test_phase3.TestConfidenceScoring" name="test_literature_confidence_assessor" time="0.001"><failure message="AttributeError: 'LiteratureConfidenceAssessor' object has no attribute 'assess_confidence'">tests/test_phase3.py:105: in test_literature_confidence_assessor
…
E   TypeError: NovelRelation.__init__() got an unexpected keyword argument 'head_entity'</failure></testcase><testcase classname="tests.test_phase3.TestNoveltyDetection" name="test_discovery_pattern_dataclass" time="0.000"><failure message="TypeError: DiscoveryPattern.__init__() got an unexpected keyword argument 'pattern_strength'">tests/test_phase3.py:187: in test_discovery_pattern_dataclass
    pattern = DiscoveryPattern(
E   TypeError: DiscoveryPattern.__init__() got an unexpected keyword argument 'pattern_strength'</failure></testcase><testcase classname="tests.test_phase3.TestNoveltyDetection" name="test_novel_relation_predictor_init" time="0.001" /><testcase classname="tests.test_phase3.TestNoveltyDetection" name="test_predict_novel_relations" time="0.002"><failure message="AttributeError: NovelRelationPredictor(&#10;  (relation_predictor): Sequential(&#10;    (0): Linear(in_features=512, out_features=256, bias=True)&#10;    (1): ReLU()&#10;    (2): Dropout(p=0.3, inplace=False)&#10;    (3): Linear(in_features=256, out_features=128, bias=True)&#10;    (4): ReLU()&#10;    (5): Dropout(p=0.3, inplace=False)&#10;    (6): Linear(in_features=128, out_features=20, bias=True)&#10;    (7): Sigmoid()&#10;  )&#10;  (confidence_estimator): Sequential(&#10;    (0): Linear(in_features=532, out_features=256, bias=True)&#10;    (1): ReLU()&#10;    (2): Dropout(p=0.3, inplace=False)&#10;    (3): Linear(in_features=256, out_features=1, bias=True)&#10;    (4): Sigmoid()&#10;  )&#10;  (novelty_detector): Sequential(&#10;    (0): Linear(in_features=512, out_features=256, bias=True)&#10;    (1): ReLU()&#10;    (2): Dropout(p=0.3, inplace=False)&#10;    (3): Linear(in_features=256, out_features=1, bias=True)&#10;    (4): Sigmoid()&#10;  )&#10;) does not have the attribute 'prediction_model'">tests/test_phase3.py:210: in test_predict_novel_relations
    with patch.object(predictor, 'prediction_model') as mock_model:
../../.local/share/uv/python/cpython-3.11.13-macos-aarch64-none/lib/python3.11/unittest/mock.py:1446: in __enter__
    original, local = self.get_original()
                      ^^^^^^^^^^^^^^^^^^^
../../.local/share/uv/python/cpython-3.11.13-macos-aarch64-none/lib/python3.11/unittest/mock.py:1419: in get_original
    raise AttributeError(
E   AttributeError: NovelRelationPredictor(
E     (relation_predictor): Sequential(
E       (0): Linear(in_features=512, out_features=256, bias=True)
E       (1): ReLU()
E       (2): Dropout(p=0.3, inplace=False)
E       (3): Linear(in_features=256, out_features=128, bias=True)
E       (4): ReLU()
E       (5): Dropout(p=0.3, inplace=False)
E       (6): Linear(in_features=128, out_features=20, bias=True)
E       (7): Sigmoid()
E     )
E     (confidence_estimator): Sequential(
E       (0): Linear(in_features=532, out_features=256, bias=True)
E       (1): ReLU()
E       (2): Dropout(p=0.3, inplace=False)
E       (3): Linear(in_features=256, out_features=1, bias=True)
E       (4): Sigmoid()
E     )
E     (novelty_detector): Sequential(
E       (0): Linear(in_features=512, out_features=256, bias=True)
E       (1): ReLU()
E       (2): Dropout(p=0.3, inplace=False)
E       (3): Linear(in_features=256, out_features=1, bias=True)
E       (4): Sigmoid()
E     )
E   ) does not have the attribute 'prediction_model'</failure></testcase><testcase classname="tests.test_phase3.TestNoveltyDetection" name="test_pattern_discovery_engine" time="0.000"><failure message="AttributeError: &lt;litkg.phase3.novelty_detection.PatternDiscoveryEngine object at 0x3590e6450&gt; does not have the attribute '_extract_patterns'">tests/test_phase3.py:240: in test_pattern_discovery_engine
…
    original, local = self.get_original()
                      ^^^^^^^^^^^^^^^^^^^
../../.local/share/uv/python/cpython-3.11.13-macos-aarch64-none/lib/python3.11/unittest/mock.py:1419: in get_original
    raise AttributeError(
E   AttributeError: &lt;litkg.phase3.novelty_detection.NoveltyDetectionSystem object at 0x35a561590&gt; does not have the attribute 'detect_novel_knowledge'</failure></testcase><testcase classname="tests.test_phase3.TestPhase3Integration" name="test_confidence_scoring_integration" time="0.006"><failure message="AttributeError: LiteratureConfidenceAssessor(&#10;  (confidence_net): Sequential(&#10;    (0): Linear(in_features=778, out_features=256, bias=True)&#10;    (1): ReLU()&#10;    (2): Dropout(p=0.1, inplace=False)&#10;    (3): Linear(in_features=256, out_features=128, bias=True)&#10;    (4): ReLU()&#10;    (5): Dropout(p=0.1, inplace=False)&#10;    (6): Linear(in_features=128, out_features=1, bias=True)&#10;    (7): Sigmoid()&#10;  )&#10;) does not have the attribute 'assess_confidence'">tests/test_phase3.py:779: in test_confidence_scoring_integration
    with patch.object(confidence_scorer.literature_assessor, 'assess_confidence') as mock_lit:
../../.local/share/uv/python/cpython-3.11.13-macos-aarch64-none/lib/python3.11/unittest/mock.py:1446: in __enter__
    original, local = self.get_original()
                      ^^^^^^^^^^^^^^^^^^^
../../.local/share/uv/python/cpython-3.11.13-macos-aarch64-none/lib/python3.11/unittest/mock.py:1419: in get_original
    raise AttributeError(
E   AttributeError: LiteratureConfidenceAssessor(
E     (confidence_net): Sequential(
E       (0): Linear(in_features=778, out_features=256, bias=True)
E       (1): ReLU()
E       (2): Dropout(p=0.1, inplace=False)
E       (3): Linear(in_features=256, out_features=128, bias=True)
E       (4): ReLU()
E       (5): Dropout(p=0.1, inplace=False)
E       (6): Linear(in_features=128, out_features=1, bias=True)
E       (7): Sigmoid()
E     )
E   ) does not have the attribute 'assess_confidence'</failure></testcase></testsuite></testsuites>